second/pfe.onnx (onnx, 561421 bytes, 4 tensors)

176 f4 [64, 9, 1, 1]
000000 b7 28 5c be 2f 06 e5 3b 50 d3 0b 3b e0 2d 33 3d
       -0.21499906 0.0069892625 0.002133567 0.04374492
000010 17 c9 d8 b9 09 0f 06 39 71 7b 99 3b 9f b6 95 b9
       -0.00041348554 0.00012784837 0.004683905 -0.00028555558
000020 2e e2 db 39 ba 7e 48 be 76 99 3e be b3 c5 aa 3e
       0.00041939452 -0.19579592 -0.18613228 0.33353958
000030 d6 f7 e5 bd b4 45 65 3b 6d a3 62 bb e1 d1 44 ba
       -0.112289116 0.0034984173 -0.0034582273 -0.0007508081
000040 3f 4d 09 3b 53 c3 05 bb 5e c1 6d be 1d fb a8 bd
       0.0020950583 -0.0020410612 -0.23218295 -0.08251021
000050 87 0e 03 3e 65 96 e3 bc f5 2e 18 ba ad 61 11 39
       0.1279851 -0.027781675 -0.0005805337 0.00013864665
000060 c2 d1 24 3b d2 83 a5 ba 2c d2 fc 39 41 59 db 3d
       0.002514944 -0.0012627786 0.00048221776 0.10710383
000070 9e ae b6 be 51 1a c0 3e 1b e0 d8 3c 1f 2c 99 ba
       -0.35680097 0.37520078 0.02647405 -0.0011686123
000080 5f 5f 13 3b 41 8b b3 bc 1e 55 da 3b 10 a5 81 3b
       0.0022487266 -0.021916987 0.006662979 0.0039564446
000090 da 2c 86 be 36 61 8b 3c 9d e2 48 be fc 73 de 3c
       -0.26206094 0.017014127 -0.19617696 0.027154915
0000a0 fb 7b 4f ba 23 60 ab b9 3c f4 50 bc ad 5b 00 bb
       -0.0007914898 -0.0003268729 -0.0127535425 -0.0019585893
0000b0 35 64 38 3b dc b7 86 bd ec 76 a5 be 36 db ce bd
       0.00281359 -0.06578037 -0.32317293 -0.10100405
0000c0 fb 09 03 bd af 19 71 3a d1 b0 5d 3a 52 c4 8b bd
       -0.03199194 0.00091972476 0.00084568287 -0.068245545
0000d0 db ab a3 3b 72 cc 6f 3c 95 24 61 3e e4 dd 5c 3c
       0.004994852 0.014636146 0.21986611 0.013480637
0000e0 7c c9 6c bd e3 0c 66 3d d8 47 0a bb 86 b2 4a bc
       -0.057809338 0.056164633 -0.002109995 -0.012371665
0000f0 8a 87 8d ba dc 66 be bb 3f 18 8d bc 16 77 78 be
       -0.001079784 -0.0058106016 -0.017223476 -0.24264178
000100 51 5c c4 3c bb 3b 57 be 10 23 0d 3d c3 db 62 ba
       0.023969801 -0.21018879 0.034457266 -0.0008653963
000110 e6 a1 dd 3a b9 80 47 bc f3 41 01 b9 3c fc 99 3b
       0.0016909211 -0.012176686 -0.00012326967 0.004699258
000120 04 da 4c be 54 82 ff bd 06 91 21 3e c7 db 12 bd
       -0.20005041 -0.1247603 0.15777978 -0.035854127
000130 1c 22 97 3a 45 37 7b ba 93 10 cf ba 24 e0 5d 3a
       0.0011530551 -0.0009583126 -0.0015797786 0.00084638805
000140 77 84 00 3a 15 72 70 be b9 d7 6b bd ce 47 8a 3e
       0.00049025513 -0.23481019 -0.057578776 0.27007908
000150 9e c8 12 bd 9d a9 55 ba 76 39 7a 3a 73 f9 d8 ba
       -0.035835855 -0.00081505795 0.00095453055 -0.0016553834
000160 0f d0 ca ba 92 6d f1 39 b7 3c 85 3d c9 79 25 3c
       -0.0015473383 0.00046048738 0.06505721 0.010099837
000170 b7 8a fc bf 17 0d 31 41 a3 24 1f bf 79 bd 9a bc
       -1.9729832 11.065696 -0.6216528 -0.018889176
000180 24 77 cb 40 6d c6 32 3f 11 2f 06 be 76 8b 2f 3e
       6.3582935 0.69834024 -0.13103892 0.17143044
000190 21 59 2c be ee 9c 71 bc d5 c6 04 3c 56 3a f0 b9
       -0.16830875 -0.014746888 0.008104046 -0.0004581983
0001a0 83 53 25 3b 62 e7 a6 ba 2a 04 a0 3a 2e be 2c 3b
       0.0025226779 -0.0012733752 0.0012208272 0.0026358473
0001b0 e7 b6 88 3e da 9a e8 bd 70 5a 5b 3f d6 f7 a7 3d
       0.26702043 -0.113576606 0.8568487 0.08201568
0001c0 aa 80 3e 3a 85 04 58 bc 6c 72 40 3c 78 5c c3 3b
       0.0007267097 -0.013184671 0.01174603 0.005961951
0001d0 41 d3 5f bc 8a 30 45 be 25 a0 83 3c 95 3c 4e be
       -0.013661207 -0.19256797 0.016067574 -0.20140298
0001e0 c0 43 55 3d 33 14 3c ba 59 5b 25 3a 70 f8 b0 3a
       0.052066565 -0.0007174641 0.00063078623 0.0013501775
0001f0 96 d6 43 3b b5 a1 c1 ba e5 ef 9e bc a3 4c a8 3e
       0.0029882542 -0.0014772924 -0.0194015 0.3287097
000200 8b c1 10 be 11 86 38 bf b2 51 00 3a 23 89 18 bd
       -0.14136331 -0.7207957 0.0004894986 -0.03724016
000210 d5 87 68 bd 3e 6c 10 3d 69 06 57 bc b2 5a 50 3c
       -0.056770165 0.035259478 -0.013124087 0.012716936
000220 4e e4 62 bc b2 bd b8 40 d3 9c d6 40 b0 7d a7 bf
       -0.013848377 5.773156 6.7066436 -1.3085232
000230 e0 de 48 bd 10 30 2a 3f 6f d1 5f bf 11 e4 b0 3c
       -0.049040675 0.6647959 -0.87428945 0.021593126
000240 1d b8 2e 3e 8a 64 a5 3d de 7b da 3d 46 68 22 3c
       0.17062421 0.08075817 0.10668157 0.009912556
000250 4c ed a8 ba 55 0d 30 bb 03 cd 13 bb 42 63 3e bb
       -0.0012888103 -0.0026863415 -0.0022552616 -0.0029050861
000260 48 ec 4a bb a6 85 28 3e b6 07 08 be 70 2f c9 bc
       -0.0030963589 0.16457233 -0.13284191 -0.024558753
000270 80 b7 dd bb a2 39 06 ba 9d 49 96 3a 2e 4c d2 bb
       -0.0067662597 -0.00051202823 0.001146603 -0.0064177727
000280 4e 6b 6c 3b 9a 16 d0 39 54 4f bc bd a6 15 92 3e
       0.00360747 0.0003968969 -0.09194818 0.2853214
000290 13 c3 cd 3e f0 51 dc bd 6e e1 c8 3b 5e 00 65 bc
       0.40187892 -0.10757816 0.006130389 -0.013977138
0002a0 24 c2 b7 3c b4 5f a7 3b 42 21 ac bc 6d 9f 08 be
       0.02243144 0.0051078442 -0.021011952 -0.13342066
0002b0 61 53 cc bd 5e 74 d3 bb 00 1d b6 bb da f3 ac 3a
       -0.09976841 -0.006453081 -0.0055576563 0.0013195232
0002c0 5b d8 d3 ba 45 4c 05 bb 2f 6f 07 3b 99 41 79 b9
       -0.0016162501 -0.002033965 0.0020665636 -0.00023770928
0002d0 1d 2e 5f be 7f 6e 36 bd 7d ed 12 3d 5d 0a 7f bc
       -0.21794935 -0.04453897 0.035871018 -0.015566436
0002e0 de 6b 2b b9 3c 27 e5 39 06 7e b3 3a 83 7e 45 ba
       -0.00016348014 0.00043707516 0.0013694174 -0.00075338053
0002f0 1d 68 b8 b8 12 1b 47 3e 09 29 7e bd 41 19 2a bd
       -8.793196e-05 0.1944392 -0.062050853 -0.04152799
000300 89 11 1c 3d c2 4e aa ba 24 54 eb 3a 99 78 39 3b
       0.03810266 -0.0012993442 0.0017954153 0.0028300642
000310 39 14 e1 ba 44 db de 3a 0e e3 4a be 2f 4e 06 bb
       -0.0017172165 0.0017002602 -0.19813177 -0.0020493378
000320 a9 e8 69 c0 a2 ee 30 c0 46 f4 cc be 6e 87 a6 3e
       -3.6548254 -2.764565 -0.40030116 0.325252
000330 e8 d3 00 40 e4 7a 87 bf 60 d5 ed 3b 99 8e 0b be
       2.0129337 -1.0584378 0.0072581023 -0.13628615
000340 16 9f 7c 3e 65 85 0b c0 ff 26 24 3f 44 a4 bd bc
       0.24670061 -2.1800168 0.64122003 -0.023149617
000350 b7 65 0f 3e b2 97 b9 3d 59 b4 6a bd 52 f7 1c 3d
       0.14003645 0.09062137 -0.0573009 0.0383218
000360 38 8c 4d 3e a3 29 6a be 5d 9a ac 3e 25 3d e7 bc
       0.2007302 -0.22867446 0.3371152 -0.028227398
000370 71 a7 a7 ba 07 be 94 bb dc 49 77 bc 89 e2 d7 3b
       -0.001279099 -0.0045392546 -0.015093293 0.0065882844
000380 e4 4b db bb 71 15 15 bd 78 e8 93 3e fb e5 23 c0
       -0.0066923965 -0.0363974 0.28888297 -2.560912
000390 1d 9a b2 bf 83 55 93 bb 06 06 83 3d 19 a3 ef be
       -1.3953282 -0.004496278 0.06397633 -0.4680412
0003a0 4c 40 3f be b4 fa 2c 3e 46 8f 77 3e 46 20 90 3c
       -0.18676871 0.1689251 0.24175748 0.017593514
0003b0 06 99 a2 40 51 91 79 40 51 d6 37 40 2b e8 b8 3e
       5.0811796 3.8994944 2.8724558 0.3611463
0003c0 47 25 34 c1 ec 1b 3d c0 a4 7e 5d 3f 91 fa 84 be
       -11.259101 -2.9548292 0.86521363 -0.25972417
0003d0 05 7e 47 ba af be 8b be 81 b2 a8 3c e5 79 03 ba
       -0.0007610026 -0.27293918 0.02059293 -0.0005015417
0003e0 64 a4 b1 3a c3 3e 90 bc b7 be 05 ba 81 b4 04 39
       0.001355302 -0.017608052 -0.0005101966 0.00012655744
0003f0 02 95 10 be 01 d0 96 be b1 49 2b 3f 9c fd de bd
       -0.14119342 -0.2945557 0.6690932 -0.10888216

177 f4 [64]
000000 c8 de 17 3e c8 20 ce 3c d8 60 86 3c e8 e4 9b 3d
       0.14831078 0.025162116 0.0164036 0.0761202
000010 36 38 58 3e 01 e9 94 bd 67 56 9d be 7e ff 35 3e
       0.21115193 -0.072710045 -0.30729982 0.17773244
000020 ec d4 8e 3c 90 0c 77 3c bf a3 86 be f4 57 c3 be
       0.017435513 0.015078679 -0.26296803 -0.3815304
000030 4a ff 14 3d be 42 a8 3d 8f 6b ed bc 09 e2 86 3d
       0.036376275 0.08215855 -0.028981952 0.065860815
000040 ba 6b 4d be c8 f2 b4 be e0 17 8f bb 18 ec cf 3b
       -0.20060626 -0.35341477 -0.00436686 0.0063452832
000050 90 fc 54 3c 06 fa e9 be ef c8 38 3d 58 fc 0e be
       0.012999669 -0.45698565 0.0451135 -0.13963449
000060 4b 5e ac bd 2c 73 1d be 30 35 9f 3a d4 96 4d 3e
       -0.084164225 -0.15375966 0.0012146588 0.20077068
000070 2c a5 9b 3c b0 fc 7a be f0 0b df 3b 94 2d 61 3e
       0.018999659 -0.24510455 0.006806843 0.21990043
000080 00 4a a6 39 2a 68 54 3e 49 ab 1f be 9e cd bb be
       0.00031717122 0.2074286 -0.15592684 -0.3668031
000090 20 01 53 3c e8 85 5c 3c 88 9e 30 3e d2 64 bb be
       0.012878686 0.01345966 0.17247975 -0.36600357
0000a0 4a 9e 04 3e 19 db 2b 3e fa d5 41 be a0 a6 c7 3b
       0.12951007 0.16782798 -0.18929282 0.0060928613
0000b0 80 32 99 bd 99 e2 3f be fb ed a4 be 11 77 33 3e
       -0.07480335 -0.18738784 -0.32212815 0.17525889
0000c0 6e 39 c6 bc 80 90 dd be c4 a1 db 3c 1e 30 33 3e
       -0.024197306 -0.43274307 0.026810534 0.17498824
0000d0 de 3c 94 be d0 42 49 bc 80 8e 5f bb f8 c3 71 3c
       -0.28952688 -0.012283996 -0.0034112036 0.014756195
0000e0 ae 8d 62 3e 0d 19 0d 3e df 75 a1 3d b6 53 3b 3e
       0.22124359 0.13779087 0.0788381 0.18293652
0000f0 53 2b 81 bd e4 ea 11 be 3c 1e b4 bd fa b8 4a 3d
       -0.063070916 -0.1424976 -0.08794829 0.049492814

voxel_feature_extractor.pfn_layers.0.conv3.bias f4 [64]
000000 df 2a 8d 3c 90 c3 0e bd 62 f9 d8 3d ed a1 79 3d
       0.017232357 -0.03485447 0.10594441 0.06094544
000010 34 d5 8b bd a3 5d 11 be ae 27 45 bd 79 7a 8d bd
       -0.06827775 -0.14195876 -0.048133545 -0.069081254
000020 1c 14 6f bd 5c 19 3a bc 61 dd a1 bd 6f b8 a9 bd
       -0.058368787 -0.011358585 -0.07903553 -0.08287131
000030 2d 57 17 3d 7f 71 35 bd 65 55 26 3e 7b 1e 82 bd
       0.03694837 -0.04429769 0.16243513 -0.0635347
000040 85 eb 00 be e6 2e 94 3d db 3b eb bd 73 e7 29 bc
       -0.12589844 0.07235508 -0.11486026 -0.010370123
000050 2f bf af bd 22 09 89 3d 64 b8 af 3d 0c ee 5e bd
       -0.08581387 0.06691195 0.085800916 -0.054426238
000060 51 03 ae bd 8d f5 0b be 7c eb 6b 3d cc a3 cf 3d
       -0.08496726 -0.13667889 0.057597622 0.10138664
000070 ca ac c4 3d a5 73 99 3d ca 43 55 bd fd 74 83 bc
       0.096032694 0.074927606 -0.0520666 -0.016046995
000080 f5 b2 23 3e 5f f0 0f bd 0a 32 11 bd 27 cd b9 bd
       0.15986235 -0.035141345 -0.03544811 -0.09072333
000090 5d 48 b9 3a da 28 1c be b6 76 30 bd 1c b7 38 3e
       0.0014135946 -0.15249959 -0.04308196 0.180386
0000a0 2b 33 0b be 97 b9 7a bd b8 9c 09 3d 96 d6 f5 3d
       -0.13593738 -0.06121215 0.033596724 0.1200382
0000b0 d1 e0 4a bd 96 59 5b 3d e3 7f 9d 3b ab ae d8 3d
       -0.049530808 0.053552233 0.004806505 0.1058019
0000c0 8d 64 45 3d 71 99 e4 3d 84 1a a6 3d c0 3c 9a 3b
       0.048191596 0.11162079 0.08110526 0.004706949
0000d0 a1 38 46 3d f7 71 d6 3d e5 fd 90 bd f8 63 84 bb
       0.04839385 0.10470956 -0.070796765 -0.0040402375
0000e0 7d f0 8a bd 5f df c4 3d f3 f4 3a bd 16 1b c0 bd
       -0.06784151 0.09612917 -0.045643758 -0.09380166
0000f0 42 ee 88 bb da ea 81 3d a3 d3 98 bc 85 4e ea 3b
       -0.004178793 0.063436225 -0.018655604 0.0071504735

voxel_feature_extractor.pfn_layers.0.conv3.weight f4 [64, 64, 1, 34]
000000 8c fe 1b b7 0b fa 94 bb 92 ce ef ba 4c 52 5b 3a
       -9.297986e-06 -0.004546409 -0.0018295816 0.000836645
000010 c1 71 1d 3b 75 40 1d 3b 37 f9 e6 3a 8e 0a 08 3b
       0.0024024101 0.0023994718 0.0017621879 0.0020758244
000020 67 d5 f0 3a be be 3d 3b bb 21 20 3b ad 06 46 3b
       0.0018374146 0.0028952803 0.0024434167 0.0030216381
000030 29 59 41 3b c5 90 21 3b 55 a1 30 3b cf 6c 58 3b
       0.0029502606 0.002465294 0.002695163 0.003302384
000040 af 28 3f 3b f6 eb 30 3b cf f4 22 3b c2 ad 16 3b
       0.0029168536 0.0026996112 0.0024865156 0.0022991751
000050 0d 12 0c 3b 19 3c 50 3b 78 e6 36 3b 46 91 48 3b
       0.0021373064 0.0031774102 0.0027908366 0.0030604168
000060 ed 39 36 3b 2c c1 3e 3b 47 ac 39 3b ba ae 3c 3b
       0.0027805523 0.0029106839 0.0028331445 0.0028790669
000070 c0 6f 35 3b b7 e0 14 3b 8c 13 45 3b bc 1f 14 3b
       0.0027685016 0.0022716948 0.0030071465 0.0022601923
000080 c2 67 4f 3b c8 7b 1b 3b d4 ca b4 3c 01 de 88 3b
       0.0031647538 0.0023724902 0.022069372 0.0041768556
000090 24 6d 8a bb 3e c7 d3 ba 96 01 b9 3b 6b 4c 8d b9
       -0.0042244364 -0.0016157401 0.005645941 -0.00026950552
0000a0 ff e3 3b bb 93 f9 2a bb 99 8b ec ba 1e ad 27 bb
       -0.0028669832 -0.00260887 -0.0018046974 -0.0025585364
0000b0 ba b4 11 bb 9f 92 ca ba 2f 5f 83 ba 0d 14 fc b9
       -0.0022232966 -0.0015455073 -0.0010022874 -0.00048080125
0000c0 6a d5 4d ba 5b c0 96 ba 90 1e aa ba 75 f8 67 ba
       -0.00078519306 -0.0011501418 -0.0012979079 -0.00088489737
0000d0 2a 62 20 ba a4 24 46 b8 9f f4 ea b9 26 5a 89 38
       -0.0006118143 -4.7241003e-05 -0.00044814215 6.5494605e-05
0000e0 4b d3 2b 39 90 b8 24 3a 1e 01 01 3a c1 1d 02 3a
       0.00016386544 0.00062836055 0.0004921126 0.000496354
0000f0 21 8a 22 3a 58 84 2c 3a d4 4e 11 3a 41 58 31 3a
       0.00062003924 0.0006581 0.00055430573 0.0006765165
000100 16 3a 3a 3a f7 d9 5e 3a 5f f1 60 3a 40 5c 45 3a
       0.00071039924 0.0008501107 0.0008580889 0.00075287
000110 c0 0a 1a 3c 45 94 9d 3b cf ce cf 3a 08 cd 1f 3b
       0.009401977 0.004808935 0.001585448 0.0024383683
000120 54 de ea 3a b8 2e a7 3a 4c 42 97 39 c2 c4 0e ba
       0.0017919042 0.0012755012 0.0002885036 -0.00054461893
000130 34 8c 06 ba 70 fc 71 ba 0b a2 67 ba 7e 65 00 ba
       -0.0005132586 -0.00092310365 -0.0008836097 -0.0004897936
000140 a8 1b 95 b9 bf 99 2b b9 94 b5 55 b9 14 48 c9 b9
       -0.000284401 -0.00016365106 -0.00020380906 -0.0003839141
000150 44 b2 bf b9 38 9d 85 b9 a6 07 89 b9 a8 71 a0 b9
       -0.00036563177 -0.00025484874 -0.00026136375 -0.0003060226
000160 b6 19 aa b9 41 8a 83 b9 cb 8e 69 b9 8e f0 dc b8
       -0.00032444083 -0.00025089274 -0.00022273806 -0.00010535224
000170 7e a6 9d b8 2b 26 53 b8 04 6d ca b7 b7 da a4 b7
       -7.517355e-05 -5.0341867e-05 -2.413104e-05 -1.965217e-05
000180 a7 71 07 37 e3 02 49 38 7e c3 47 37 17 6e 38 38
       8.073089e-06 4.7924823e-05 1.1906841e-05 4.3971548e-05
000190 97 a5 59 38 77 90 7e 38 1f 5e f1 3b 17 bb 9a bb
       5.189105e-05 6.0692862e-05 0.0073659564 -0.00472201
0001a0 1d 1e 91 ba 90 6e 9b bb 19 df 19 3c 44 24 42 3c
       -0.0011071597 -0.0047434047 0.0093915695 0.011849467
0001b0 44 78 be 3c 5b fe 9f 3c 37 05 b7 3c 75 1d 7b 3c
       0.023250706 0.019530466 0.022341354 0.015326847
0001c0 49 5a 57 3c ab f8 43 3c 79 0e 02 3c d7 97 1f 3c
       0.013144084 0.0119611425 0.007938021 0.009740791
0001d0 52 56 17 3c 91 eb 2c 3c e3 5f 1b 3c ec ae 26 3c
       0.009236889 0.01055421 0.00948331 0.010173541
0001e0 ad f4 53 3c ec a9 87 3c a9 59 8b 3c ac 9a 8d 3c
       0.012936753 0.016560517 0.017010527 0.017285667
0001f0 d1 03 9c 3c 9f 41 95 3c f0 4e 8d 3c bc d2 92 3c
       0.019044789 0.018219767 0.017249554 0.017922752
000200 08 7d 90 3c 46 fe 92 3c 70 2b 8b 3c 9f e9 8c 3c
       0.017637745 0.017943513 0.016988486 0.017201243
000210 b1 dd 8f 3c 44 8b 92 3c d8 97 92 3c fb 0b 8e 3c
       0.017561765 0.017888673 0.01789467 0.017339697
000220 09 f6 98 3a 3d 83 80 bb dd 16 89 ba 35 cb 44 3b
       0.0011670004 -0.003921895 -0.0010459084 0.0030028347
000230 72 1a 88 3b 3e fb 51 3b 9d 84 63 3b ba 15 8e 3b
       0.004153543 0.003204062 0.0034716495 0.004336086
000240 61 ba 56 3b 9b 25 81 3b 75 b0 6f 3b e7 d3 89 3b
       0.00327649 0.0039412505 0.0036573682 0.004206169
000250 9d 3c 8d 3b 32 bf 87 3b 86 fb 84 3b 22 01 bc 3b
       0.004310204 0.0041426653 0.0040583042 0.0057374397
000260 0a fa a5 3b 24 18 a4 3b 1c 31 a0 3b 22 4c 5b 3b
       0.0050652074 0.0050077606 0.004888667 0.0033462127
000270 c3 22 9c 3b ba 89 99 3b e0 27 ad 3b d0 cd 65 3b
       0.004764886 0.0046856077 0.0052842945 0.00350653
000280 69 23 6f 3b e1 3e 64 3b e0 eb 9c 3b 17 6e 84 3b
       0.0036489612 0.0034827518 0.0047888607 0.004041444
000290 48 e7 81 3b 95 df 92 3b 8b 2c 9b 3b e3 21 98 3b
       0.0039643385 0.0044822195 0.0047355345 0.0046427115
0002a0 07 bc a9 3b b8 aa 59 3b ba 22 ed bb 31 8f 07 bd
       0.0051798853 0.0033213329 -0.0072368057 -0.033095542
0002b0 1a c2 9f bc 2f 59 6a bc 90 e4 30 b8 76 b1 b8 bb
       -0.019501735 -0.01430349 -4.2174535e-05 -0.0056363894
0002c0 a7 6e ad 3a 1a 85 c4 ba b4 91 14 b9 d5 a5 a8 bb
       0.001323183 -0.0014993281 -0.00014168659 -0.005146722
0002d0 82 ea 9f bb 73 e2 b2 bb e3 9c ce bb 4f ed e0 bb
       -0.0048802504 -0.0054591238 -0.0063053234 -0.006864227
0002e0 fc ff 0b bc aa 94 00 bc a0 3a 11 bc 5b e5 00 bc
       -0.008544918 -0.007847944 -0.008864075 -0.007867183
0002f0 c6 c5 80 bb 1f 57 7e 3a 13 9d 3d 3b 5e 05 6e 3b
       -0.0039298264 0.0009702313 0.0028932735 0.0036319117
000300 37 30 81 3b 6d fe 53 3b cd 6a 02 3b 7a 9c 5f 3b
       0.0039425152 0.0032347695 0.0019900084 0.0034120367
000310 82 7f 17 3b c9 14 e3 39 f5 0b 1f ba 21 60 5c b8
       0.0023116772 0.000433123 -0.00060671504 -5.2541614e-05
000320 a7 5e 4b 3a c7 02 89 3a a2 5f 98 3a 8c d6 7c 3a
       0.000775794 0.0010453098 0.001162518 0.0009645007
000330 33 6e 15 bc 45 77 e2 3b 6b 52 36 bc e2 24 f2 bb
       -0.009120512 0.0069111907 -0.011128048 -0.0073896507
000340 c1 b8 fe bb fe 60 35 ba c9 19 ee 3b 78 a7 4d 3b
       -0.007773489 -0.0006919055 0.0072662574 0.0031380337
000350 51 2d af 3b ec 8d cd 3b 47 b4 89 3b cb 49 ef 3a
       0.0053459783 0.006273022 0.004202399 0.0018256245
000360 22 ee 03 ba a8 8e cf b9 af 07 8c ba 54 34 88 ba
       -0.0005032738 -0.00039588404 -0.0010683442 -0.0010391572
000370 f9 af 4b bb 2b c2 6a bb 38 73 33 bb 1a cd 6b 3b
       -0.003108023 -0.00358213 -0.0027381908 0.0035980404
000380 92 65 9d 3b 57 ea 18 3b a2 f2 71 3a 80 8d 82 39
       0.004803368 0.0023333037 0.00092295755 0.00024900958
000390 42 96 44 ba ec 9d d5 b9 de 78 f5 ba 32 40 2f bb
       -0.0007499197 -0.00040744187 -0.0018728038 -0.0026741144
0003a0 63 2b 07 bb e7 e0 0f bb 7c a3 1b ba cc b4 02 ba
       -0.0020625226 -0.002195412 -0.0005937142 -0.0004986047
0003b0 2e 3a f6 b9 56 ba 07 ba b6 e8 c6 3a 3a be 80 bb
       -0.00046964124 -0.00051776075 0.0015175554 -0.003928927
0003c0 46 4c 0a bb e0 5a 7f 3a 7d 09 23 3b 54 a1 67 3b
       -0.0021102591 0.00097410195 0.0024877482 0.0035343962
0003d0 e7 27 37 3b de 21 6d 3b 30 45 6a 3b c4 a4 20 3b
       0.0027947368 0.0036183516 0.0035746805 0.002451227
0003e0 aa 7f 88 3b 17 74 4f 3b bd 0c 7a 3b 62 3d 49 3b
       0.0041656094 0.0031654888 0.0038154565 0.0030706753
0003f0 e3 85 88 3b eb 5d 6f 3b 80 9b 8a 3b f7 5c 56 3b
       0.004166351 0.0036524485 0.004229963 0.003270922
